__________________________________________________________________________________________________
Layer (type)                    Output Shape         Param #     Connected to                     
==================================================================================================
input (InputLayer)              (None, 640, 128, 1)  0                                            
__________________________________________________________________________________________________
conv_1 (Conv2D)                 (None, 638, 128, 16) 64          input[0][0]                      
__________________________________________________________________________________________________
max_pooling2d_6 (MaxPooling2D)  (None, 319, 64, 16)  0           conv_1[0][0]                     
__________________________________________________________________________________________________
conv_2 (Conv2D)                 (None, 317, 64, 32)  1568        max_pooling2d_6[0][0]            
__________________________________________________________________________________________________
max_pooling2d_7 (MaxPooling2D)  (None, 158, 32, 32)  0           conv_2[0][0]                     
__________________________________________________________________________________________________
conv_3 (Conv2D)                 (None, 156, 32, 64)  6208        max_pooling2d_7[0][0]            
__________________________________________________________________________________________________
max_pooling2d_8 (MaxPooling2D)  (None, 78, 16, 64)   0           conv_3[0][0]                     
__________________________________________________________________________________________________
conv_4 (Conv2D)                 (None, 76, 16, 64)   12352       max_pooling2d_8[0][0]            
__________________________________________________________________________________________________
max_pooling2d_9 (MaxPooling2D)  (None, 19, 4, 64)    0           conv_4[0][0]                     
__________________________________________________________________________________________________
conv_5 (Conv2D)                 (None, 17, 4, 64)    12352       max_pooling2d_9[0][0]            
__________________________________________________________________________________________________
pool_lstm (MaxPooling2D)        (None, 160, 64, 1)   0           input[0][0]                      
__________________________________________________________________________________________________
max_pooling2d_10 (MaxPooling2D) (None, 4, 1, 64)     0           conv_5[0][0]                     
__________________________________________________________________________________________________
lambda_2 (Lambda)               (None, 160, 64)      0           pool_lstm[0][0]                  
__________________________________________________________________________________________________
flatten_2 (Flatten)             (None, 256)          0           max_pooling2d_10[0][0]           
__________________________________________________________________________________________________
bidirectional_2 (Bidirectional) (None, 128)          49536       lambda_2[0][0]                   
__________________________________________________________________________________________________
concat (Concatenate)            (None, 384)          0           flatten_2[0][0]                  
                                                                 bidirectional_2[0][0]            
__________________________________________________________________________________________________
preds (Dense)                   (None, 8)            3080        concat[0][0]                     
==================================================================================================